…
2026-05-21 02:31:41  WARNING   tensorflow - TensorFlow GPU support is not available on native Windows for TensorFlow >= 2.11. Even if CUDA/cuDNN are installed, GPU will not be used. Please use WSL2 or the TensorFlow-DirectML plugin.
2026-05-21 02:31:41  INFO      sentiment.models.gru - Model built Ś parameters: 1,613,441
2026-05-21 02:31:41  INFO      sentiment.training.trainer - Model: "GRUSentiment"
+--------------------------------------------------------------------------+
| Layer (type)        | Output Shape      |    Param # | Connected to      |
|---------------------+-------------------+------------+-------------------|
| token_ids           | (None, 200)       |          0 | -                 |
| (InputLayer)        |                   |            |                   |
|---------------------+-------------------+------------+-------------------|
| embedding           | (None, 200, 128)  |  1,216,768 | token_ids[0][0]   |
| (Embedding)         |                   |            |                   |
|---------------------+-------------------+------------+-------------------|
| spatial_drop        | (None, 200, 128)  |          0 | embedding[0][0]   |
| (SpatialDropout1D)  |                   |            |                   |
|---------------------+-------------------+------------+-------------------|
| not_equal           | (None, 200)       |          0 | token_ids[0][0]   |
| (NotEqual)          |                   |            |                   |
|---------------------+-------------------+------------+-------------------|
| bi_gru_0            | (None, 200, 256)  |    198,144 | spatial_drop[0][ģ |
| (Bidirectional)     |                   |            | not_equal[0][0]   |
|---------------------+-------------------+------------+-------------------|
| bi_gru_1            | (None, 200, 128)  |    123,648 | bi_gru_0[0][0],   |
| (Bidirectional)     |                   |            | not_equal[0][0]   |
|---------------------+-------------------+------------+-------------------|
| attention           | (None, 128)       |     16,512 | bi_gru_1[0][0]    |
| (BahdanauAttention) |                   |            |                   |
|---------------------+-------------------+------------+-------------------|
| avg_pool            | (None, 128)       |          0 | bi_gru_1[0][0],   |
| (GlobalAveragePoolģ |                   |            | not_equal[0][0]   |
|---------------------+-------------------+------------+-------------------|
| max_pool            | (None, 128)       |          0 | bi_gru_1[0][0]    |
| (GlobalMaxPooling1ģ |                   |            |                   |
|---------------------+-------------------+------------+-------------------|
| pool_concat         | (None, 384)       |          0 | attention[0][0],  |
| (Concatenate)       |                   |            | avg_pool[0][0],   |
|                     |                   |            | max_pool[0][0]    |
|---------------------+-------------------+------------+-------------------|
| dense_0 (Dense)     | (None, 128)       |     49,280 | pool_concat[0][0] |
|---------------------+-------------------+------------+-------------------|
| bn_0                | (None, 128)       |        512 | dense_0[0][0]     |
| (BatchNormalizatioģ |                   |            |                   |
|---------------------+-------------------+------------+-------------------|
| drop_0 (Dropout)    | (None, 128)       |          0 | bn_0[0][0]        |
|---------------------+-------------------+------------+-------------------|
| dense_1 (Dense)     | (None, 64)        |      8,256 | drop_0[0][0]      |
|---------------------+-------------------+------------+-------------------|
| bn_1                | (None, 64)        |        256 | dense_1[0][0]     |
| (BatchNormalizatioģ |                   |            |                   |
|---------------------+-------------------+------------+-------------------|
| drop_1 (Dropout)    | (None, 64)        |          0 | bn_1[0][0]        |
|---------------------+-------------------+------------+-------------------|
| sentiment (Dense)   | (None, 1)         |         65 | drop_1[0][0]      |
+--------------------------------------------------------------------------+
 Total params: 1,613,441 (6.15 MB)
 Trainable params: 1,613,057 (6.15 MB)
 Non-trainable params: 384 (1.50 KB)

2026-05-21 02:31:41  WARNING   sentiment.training.trainer - TensorBoard is not installed; skipping TensorBoard callback.
E0000 00:00:1779319909.504345   30944 util.cc:131] oneDNN supports DT_BOOL only on platforms with AVX-512. Falling back to the default Eigen-based implementation if present.
…
